models/hybrid_classifier.pt (torch, 432288 bytes, 3 tensors)

fc1.weight f4 [128, 838]
00000000: 6c17 0d3d 4266 e1bb 916d a83c 74d9 a23c
00000010: c9c9 fbbc bb4c 05bd 8a5a 013d caf0 8fbc
00000020: 6e26 373c 9891 343c 37c1 4bbc 82ae 98bc
00000030: c06b fdbb 48b4 fbbb 9066 72bc 206e e6bc
00000040: 85dc 63bc 5d0e 773a db34 88bc 0bff a23c
00000050: e00f 8b3c 5523 3abd f52e 393c 7847 0dbb
00000060: 7d72 d1bc 8d00 c6bc db0d 933c 5f72 1f3d
00000070: cf7a 5e3d 0451 48bd 7f01 893c bc3a 7d3c
00000080: a4d4 3d3c ed6f ff3b 2a6a c139 06ae 983b
00000090: 32df 0dbd aced 03bd 080e e4bb 9193 1a3c
000000a0: dff7 45bd 7ab6 0a3d 1e33 d13c 3a3c b2ba
000000b0: a823 8cbc 125c 463d 2bc6 ae3c 679c aa3c
000000c0: 3040 2538 523a c5bb 4e2d 8aba 47f8 8b3c
000000d0: 5fcf 5cbc 3240 9bbc 1ca4 29bc dd3e 08bc
000000e0: d23a 0c3c 8e7b f03b 9815 43bd 8414 743b
000000f0: 4346 24bd f5e3 3d3b 5efc 063c 1d50 2abc
00000100: 5fe2 f1bb a3db 37bd aa95 c6bc 18de 90bc
00000110: 3779 41bb 412a 59bd 2b33 dcbb 53bc a83c
00000120: f33b 03bd 411c 4e3b 9adc 823c ad43 ab3b
00000130: 2a3c 1bbd caca 28bd f785 84bb ed86 fbbc
00000140: cf66 edbc fd17 3a3c e25e fb3c c053 573c
00000150: b645 a03c 5733 513d d0b4 53bb 0aab b1bb
00000160: 7c85 ba3c 5a47 f9bb 2c8d 80bc e6de d43b
00000170: 4ad9 3e3d 5abc 23bd 3f96 fd3c 4056 533c
00000180: 6946 f53c 85b2 e53b 0a9c 1b3c f267 243d
00000190: 8dce d4ba 5975 47bd 4577 0dbc 4a21 65bc
000001a0: bdbb 533c ed6f c9bc 5fd7 7abb 54cb 303b
000001b0: c49c ecbc 0a23 5abc af47 e33c 6e2d b2bc
000001c0: 9b55 d5bb 5aae ee3c 96f8 e93c 1ccd 45bc
000001d0: 8f9a 5fbb 24c2 113d 92d2 0f3d faea b63c
000001e0: 3bdf a839 248c 26bc fd0f 99bc 76d5 f23c
000001f0: 47b4 0bbd 52e1 a6bb c37c 473c f8f3 b7bc
00000200: d20e a53c 6eea d3bb 6789 0c3d cf89 52bc
00000210: ebd8 4abc 5f71 e1bc 9804 413c ed9d 7bbb
00000220: 8fe1 373b 5d63 33bb beaa 513d 830f ccbb
00000230: 18ee 5e3c d702 3abd c515 cabc 2350 efba
00000240: 0db7 113d 7ca5 bcbc 31dc 8a3b 724e e1ba
00000250: 709f 16bc 61aa 0c3c 579b 3fbc ef6d debc
00000260: 60a5 85bc b395 0b3d 2519 343c 3b31 0b3d
00000270: 91c9 36bc 4336 cdbc 50ca f23c 23e4 b73c
00000280: ce1b 193d 2332 30bc d218 0ebb 260e cd3c
00000290: e7bb 853c 4b96 b93c 72fa f63c 5fef bd3c
000002a0: 7a97 92bc f5e6 a13c 8d8a 57bd 6b1b 213d
000002b0: b1ac 053d f1af fe3b c6b5 e9ba 7c30 fd3c
000002c0: c521 70bc ac69 cdb8 e0b4 9bbb 3489 16ba
000002d0: c654 5f3c 1f51 1d3d 544d f43c 4467 643c
000002e0: 8509 053d f229 21bd b8f3 2e3d f5ba b1bc
000002f0: f8a6 f2bb a3e6 34bb e822 a2bc 2400 213d
00000300: 57fc 2bbd aceb 94bc 1bc4 473c 18f3 69bc
00000310: c819 383c e85e 423d ea03 8a3c 0849 5ebc
00000320: 21ce ddbc 5839 5ebd ebfd 0dbc 2be4 89bc
00000330: 8873 edbc 2865 7abc c5e7 79bc 6e88 ce3b
00000340: 1a48 963b 2248 46bd 56f7 893c dffc 3a3c
00000350: e71d f6bc 0da5 c1bc e0d9 163d cb1a b6bc
00000360: c5da bfbc 18d1 d63c e74a 17bd 66aa 23bc
00000370: 4f11 733a 2868 183d c46c afbc edde ddbb
00000380: 5f71 beba e7bc 1f3d 3f4a 193d 2d4f 443d
00000390: e882 a538 d470 d03c 9ae0 9539 db2f 56bb
000003a0: e347 e43b c929 47bd c9f5 27bd ab60 083d
000003b0: d2b0 8a3b ff65 39bb e14e 123c 3120 4bbd
000003c0: c7bb 8abc 5f4a 55bb 7b0b 3abd ffec 43bd
000003d0: ee53 91bb 30a3 3039 2957 3f3c ef49 9e3c
000003e0: f7af a4bc 6c6b ca3c 4750 a93c 1ff1 073c
000003f0: ab42 0c3b 5112 1abc 023b 50bc 9676 b5bc
0.034446165 -0.006878645 0.020560058 0.01987908 -0.030735867 -0.03254388 0.031580485 -0.017570872
0.011178596 0.01102104 -0.012436203 -0.0186379 -0.007733792 -0.0076814033 -0.014794961 -0.028128684
-0.013907556 0.00094244425 -0.016626766 0.019897005 0.016975343 -0.04544385 0.011302699 -0.0021557491
-0.025567288 -0.024170185 0.017950943 0.038927432 0.05431634 -0.048905388 0.016724346 0.015455898
0.011586342 0.007795325 0.00036890927 0.004659417 -0.034636684 -0.032209083 -0.0069596805 0.009434597
-0.04833209 0.03386543 0.02553707 -0.0013598271 -0.017106846 0.04842765 0.021334728 0.020826532
3.9398845e-05 -0.006018915 -0.0010542066 0.017086161 -0.0134771755 -0.01895151 -0.010354068 -0.008315769
0.008558946 0.0073389476 -0.047628015 0.0037243674 -0.04010607 0.0028974984 0.00823888 -0.010395077
-0.007381722 -0.044887196 -0.024241287 -0.017684028 -0.0029521713 -0.053018812 -0.006719967 0.020597612
-0.032039594 0.0031449946 0.015974332 0.0052265734 -0.037899174 -0.04120902 -0.00404429 -0.030703986
-0.028979687 0.011358258 0.030684892 0.013142526 0.01956449 0.051074352 -0.0032303818 -0.005422001
0.022768728 -0.0076073827 -0.015692316 0.006496298 0.04659394 -0.039974548 0.030955432 0.012898982
0.0299408 0.0070098066 0.009497652 0.040138192 -0.0016235873 -0.048695896 -0.008634393 -0.0139849875
0.012923178 -0.024589503 -0.0038275344 0.0026976662 -0.028883345 -0.013314018 0.027744142 -0.021750178
-0.006510449 0.029135872 0.028560918 -0.012072828 -0.0034119224 0.035585538 0.035112925 0.022328842
0.00032209777 -0.010165248 -0.018684382 0.029642802 -0.034107473 -0.0050927782 0.012175742 -0.0224552
0.020148668 -0.006467155 0.034310725 -0.012850239 -0.012380819 -0.02751988 0.01178088 -0.0038393692
0.0028058027 -0.0027372458 0.051188223 -0.006227435 0.013606571 -0.045412865 -0.024668584 -0.0018258136
0.03557496 -0.023028128 0.0042376746 -0.0017189516 -0.009193286 0.008585543 -0.011694751 -0.02715203
-0.016314209 0.03407831 0.010992323 0.033982497 -0.011156456 -0.025050288 0.029637486 0.022447651
0.037380032 -0.010754141 -0.0021682275 0.02503116 0.01632495 0.022654673 0.030148719 0.02318543
-0.017894495 0.01976345 -0.052622367 0.03933279 0.032635394 0.0077724387 -0.0017830662 0.030906908
-0.014656489 -9.794845e-05 -0.0047517866 -0.0005742491 0.013631051 0.03840744 0.02982203 0.013940636
0.03247978 -0.039346643 0.042712897 -0.021695593 -0.007405158 -0.002760329 -0.019792035 0.039306775
-0.041988697 -0.018178783 0.012192751 -0.0142791495 0.0112366155 0.04745379 0.01684757 -0.013567217
-0.027075829 -0.054253906 -0.008666496 -0.016832432 -0.028985754 -0.015282907 -0.015253012 0.006302885
0.004586232 -0.048408635 0.016841572 0.011412828 -0.030043555 -0.023638273 0.036828876 -0.022229573
-0.023419747 0.02622275 -0.036936667 -0.009989357 0.00092722935 0.037208706 -0.021414168 -0.0067709596
-0.0014529637 0.03899851 0.037424322 0.04792707 7.892196e-05 0.025444426 0.00028586836 -0.0032682333
0.0069665774 -0.048623834 -0.041005883 0.033295315 0.0042325044 -0.0028289554 0.008929939 -0.049591247
-0.016935242 -0.003254555 -0.045421105 -0.04783344 -0.004435054 0.0001684546 0.011678495 0.019322364
-0.020103438 0.024709426 0.020668162 0.008297234 0.0021402042 -0.009403781 -0.012709381 -0.022151273

fc1.bias f4 [128]
00000000: ef7b f9bc e840 d5b8 b584 29bb 5c63 41bc
00000010: 7c90 1aae 8308 bbbb 63fc 01b9 7055 f53b
00000020: 7391 dcbc b6bf 0cb9 f1a9 d0bc d544 7bb8
00000030: 37af b5bc c727 843c 8b16 f739 9a1e 9a2d
00000040: 7264 02bc f29d eabc d670 423a 0c90 f6bc
00000050: 1f45 efbb 34cf 36bc 1727 d03c 58a6 c23c
00000060: 712d 2234 bca9 5abd 86ef 7dbc 9d4b 183c
00000070: 22b9 adbc 6f36 3d39 c773 0ebc 6553 823c
00000080: 7150 b6bc c6f5 5e38 a6b4 c53c 4e9c eabc
00000090: e842 ac3c 8452 d8bb f9a9 aabc 17a9 2cbc
000000a0: 2009 f1b6 6b19 913c ef13 2fbc 233d 3dbc
000000b0: ad3b 5e3b 439d d63b 8242 553c 2683 f2bc
000000c0: 71ec f33b d524 89bb 570e 8fbc c58d 4ebc
000000d0: b10a eabc e03f bc3c 909c f0bc dcff fcaf
000000e0: e7ab c63a c3a6 debc 4118 be3c a3ed c83c
000000f0: 46cf 873c f2b3 233c 712c 03bc f431 82ba
00000100: ca89 0e3d 8000 edbb 5f43 ac3b 042f 6a32
00000110: 9536 9a3c c41b 04bd f77f 24bb d8ca 0ebd
00000120: 8ab8 08bd 0e55 a63c c869 923c 0d4a 98b9
00000130: 7825 383c 2c18 b0bc bcea 9abc affc dc3b
00000140: a406 8fbb 6f2c 8e3c 2f10 26bb 17b7 0cbc
00000150: b913 0939 cbf3 a8b8 5de4 b32d c35e 8cbc
00000160: 17bf f3bc 92a2 7a3b ba25 23bc 0eb8 daba
00000170: 08c8 7db5 f88c c42f 9648 9cbc daea 18bb
00000180: 91d2 b0bc d416 9bba 596b a5bb 538e 5f36
00000190: b045 03bc db7b 863c 1699 a93b 16eb e035
000001a0: c113 573c 6c23 d33b a800 1eb9 fa0d 12bc
000001b0: dfb3 b92e 93a7 8a3c 913b e3bc 53a5 61b8
000001c0: f0b4 d03c 0a85 aebb 7af6 a5ba 9c81 2c31
000001d0: 5ff9 f83b 389c b93b ec02 b0ae 4d46 a1bc
000001e0: 97a4 bebc 9c34 4239 35bc 122e 1970 093c
000001f0: 91ff 543c 1113 b33c 9430 933b c93a 88bc
-0.030454604 -0.00010168721 -0.0025866453 -0.011803474 -3.5143874e-11 -0.005707802 -0.0001239642 0.0074869916
-0.026924824 -0.00013422858 -0.02547166 -5.9907168e-05 -0.022178276 0.016132249 0.00047128307 1.7521363e-11
-0.007958518 -0.028639767 0.00074173266 -0.030097984 -0.007301941 -0.0111577995 0.025409264 0.02376096
1.5103957e-07 -0.053384528 -0.015499001 0.009295371 -0.021206442 0.00018044723 -0.008694596 0.015908906
-0.022255154 5.315782e-05 0.024133991 -0.028638985 0.021027997 -0.0066016335 -0.020833002 -0.010538361
-7.183422e-06 0.017712316 -0.010685905 -0.011550221 0.0033910081 0.006549509 0.013016345 -0.029603552
0.0074439575 -0.004185299 -0.017462892 -0.012607043 -0.028569551 0.022979677 -0.02937153 -4.6020332e-10
0.0015157432 -0.027179128 0.023204925 0.024527377 0.016578328 0.009991633 -0.008006201 -0.00099331
0.034799375 -0.0072327256 0.0052570547 1.3631283e-08 0.018824855 -0.032253042 -0.0025100687 -0.034861416
-0.033379115 0.02030423 0.017872706 -0.0002904687 0.011239402 -0.021495901 -0.018910758 0.0067439894
-0.0043648053 0.017355172 -0.0025339236 -0.008588574 0.00013072685 -8.056274e-05 2.0451358e-11 -0.01713503
-0.029754205 0.0038243872 -0.009957725 -0.0016686933 -9.454093e-07 3.5752357e-10 -0.01907758 -0.0023333342
-0.02158478 -0.0011832365 -0.005048197 3.3312433e-06 -0.00801222 0.01641648 0.00517572 1.675772e-06
0.013127268 0.0064434316 -0.00015068299 -0.008914465 8.4447775e-11 0.016925609 -0.027738364 -5.379815e-05
0.025476903 -0.005325918 -0.0012661957 2.5102969e-09 0.0075980867 0.0056643747 -8.0040724e-11 -0.019686842
-0.023271842 0.0001852088 3.3363718e-11 0.008388543 0.013000385 0.021859678 0.004491875 -0.016629593

fc2.weight f4 [1, 128]
00000000: c8d4 d33c 5572 603d 916a b4bc 4175 45bd
00000010: 812e e73b a6d1 633d d1b0 29bc 5443 75bc
00000020: 3a00 65bd 9611 04bd 8d6e cdbb 4d1e 2e3c
00000030: bc53 a33d ac8d 4dbd 0ea7 40bc 5192 623c
00000040: 933a 853c 8da8 0e3d a8fc 16bd 58b7 51bd
00000050: 8d18 46bd b806 83bc 5bd9 d93c 766f 4ebd
00000060: 693b fa3c fbcd 8bbd 8b5e 573b dd8e 853c
00000070: beb5 a7bd 867f a238 8d0e d0bc cbb9 403d
00000080: 9991 aa3d 1bfb 673d 2e5e 6c3d 3046 793d
00000090: 60ff aabd 4274 9b39 fd74 2cbd af2e 903d
000000a0: 9bee 9e3b b4a3 533d ccab a2bd 9583 193c
000000b0: 5f7f 9c3c c686 8cbd a3d8 69bc d403 36bd
000000c0: e52e b6bd cfc3 123d 08a7 6ebd 5201 98bd
000000d0: 0471 77bd 1ec3 883d 6efa 103d 679a ce3b
000000e0: 07b5 5cbd 26c8 18bd b807 373d 98ed a33d
000000f0: 6763 9a3c 03f9 5e3b 46e7 563d c27a 31bd
00000100: a040 4e3c 14d9 a8bd ea65 08bd 06db 3bbd
00000110: 5d45 3d3d 2618 bf3c d5c0 ba3c c026 95bb
00000120: a56b 17bc 59cb 94bd 0c08 af3c 72e5 3cbd
00000130: fe2b 423d 60e0 023d a694 693c 3a17 d83c
00000140: 8c02 93bc d7f2 3b3d b1a3 96b9 653a 023d
00000150: e345 a7bc 24ee 643c 4ab9 99b3 bfde b83b
00000160: 359a 293c 6d35 493d b79b 30bd 887d ccbd
00000170: 038a 943c 175f 203d 5644 9f3d 359e 18bb
00000180: 27b2 12bd b389 043a 6a8f 953c 21b0 563d
00000190: a4c0 72bd 7d47 1c3d e81c 87bd a496 2abd
000001a0: 35e8 90bd 70fe e43c 4b51 08bc 3ec7 3bbd
000001b0: 3480 ca36 b817 fb3b a911 0ebc fc8b 9ebc
000001c0: 7f18 a3bc aa5b 993a ce21 933c acdb 88bc
000001d0: e5fa 2937 780e 263d 8995 a8b2 97d0 903d
000001e0: 3df9 653d 62c9 e439 05a4 d73c 3112 3b3d
000001f0: 8255 66bd 9ef5 373b d5f7 09bd 626a 163d
0.025858298 0.054796536 -0.022023471 -0.048207525 0.0070551042 0.05561986 -0.010357098 -0.014969666
-0.05590842 -0.032243334 -0.006269282 0.010627341 0.079749554 -0.050183937 -0.011758579 0.01382883
0.016263282 0.03482871 -0.036862046 -0.05120024 -0.048363257 -0.015994415 0.026592901 -0.050399266
0.030545907 -0.06826397 0.0032862748 0.016303474 -0.081889614 7.748515e-05 -0.025397563 0.047052186
0.08328552 0.056635957 0.057707004 0.06085795 -0.0834949 0.00029650523 -0.042103756 0.07040154
0.0048502213 0.05166979 -0.07942924 0.0093697505 0.019103704 -0.068616435 -0.014272842 -0.044437245
-0.08895663 0.03583127 -0.058264762 -0.07422127 -0.060410514 0.06677841 0.03539508 0.0063050273
-0.05388358 -0.03730025 0.044685096 0.08004302 0.018846227 0.0034022934 0.052466653 -0.04332996
0.01258865 -0.08244529 -0.033300318 -0.045863174 0.046208728 0.023326945 0.022797028 -0.0045517385
-0.009241973 -0.07265348 0.021366142 -0.046117254 0.047405235 0.031952262 0.014256632 0.026378263
-0.01794555 0.045885887 -0.0002873219 0.03179397 -0.020419067 0.013972793 -7.1583216e-08 0.005641788
0.010351707 0.049123216 -0.04311725 -0.09984881 0.018132215 0.039153185 0.07776706 -0.0023287658
-0.03581443 0.0005055919 0.018256862 0.052414063 -0.059265748 0.038154114 -0.0659731 -0.04164757
-0.0707554 0.027953357 -0.008320163 -0.04584431 6.034994e-06 0.0076627396 -0.008671203 -0.01935386
-0.019909142 0.0011700292 0.017960455 -0.01670631 1.0131601e-05 0.040541142 -1.9625775e-08 0.07071035
0.056145895 0.0004363759 0.026323328 0.045671646 -0.05623389 0.0028069983 -0.033683617 0.03672255
