models/hybrid_classifier.pt (torch, 994028 bytes, 5 tensors)

fc.0.weight f4 [256, 838]
0	0xbbb9aab0	-0.0056660995
1	0x3c29f7b0	0.010373995
2	0x3cb0fceb	0.021604976
3	0x3c8bc026	0.017059397
4	0x3c8af927	0.016964508
5	0xbc96f44d	-0.018427039
6	0x3cd7ee3d	0.026358718
7	0x3c510b4d	0.012759042
8	0x3b9d2740	0.0047959387
9	0x3cf28f3f	0.02960932
10	0x3ca6c56c	0.02035781
11	0xbc52288b	-0.012827049
12	0x3c0cc7dc	0.008592572
13	0x3ce3d5dd	0.027811939
14	0xbd06510a	-0.03279213
15	0x3c6712ac	0.014103573
16	0xbc2a6d42	-0.010402026
17	0xbc4e6263	-0.012596699
18	0xbc6660b3	-0.014061141
19	0xbc88bd4d	-0.016691828
20	0x3cb1fd6c	0.021727286
21	0x3cfd5f82	0.03092933
22	0x3b852ceb	0.0040641925
23	0xbc0f808e	-0.008758677
24	0xbcb4f1e7	-0.022088004
25	0xbb92249f	-0.004459932
26	0x3cb9bc68	0.022672847
27	0xbc01b249	-0.007916042
28	0xbc200542	-0.009766879
29	0xbcf47b57	-0.02984397
30	0x3d0a120e	0.033708625
31	0x3c5659cf	0.0130829355
32	0xbb488782	-0.0030598347
33	0x3cbdfb46	0.023191106
34	0xbb85d01f	-0.004083648
35	0x3ced5e8b	0.028975746
36	0x3b2003c4	0.0024416307
37	0xbcfaff94	-0.030639447
38	0x3c09d805	0.0084133195
39	0xbcc5aa6e	-0.024129119
40	0xbcf82066	-0.030288886
41	0xbcd1c26a	-0.0256054
42	0x3c8e9475	0.017404774
43	0xbba56b95	-0.005048225
44	0xbbb44fca	-0.0055026757
45	0x3c29be6b	0.010360341
46	0xbc916356	-0.017747562
47	0xbcb7ae35	-0.022421936
48	0x3c9ba933	0.019001579
49	0xb93ded9a	-0.00018112958
50	0xbc15d9bd	-0.009146151
51	0xb93f0cba	-0.0001821992
52	0xbd049483	-0.032368194
53	0xbc925011	-0.017860444
54	0x3c1349bd	0.008989749
55	0xbb63cee9	-0.003476078
56	0x3c4df485	0.012570505
57	0xbc66ecfd	-0.014094588
58	0x3c966103	0.018356806
59	0x3d03d928	0.03218952
60	0x3c83d97e	0.01609492
61	0x3c97d3bc	0.01853358
62	0x3b928150	0.0044709817
63	0xbceca18d	-0.028885627
64	0x3a470edc	0.0007593462
65	0xbccb87d8	-0.024845049
66	0x3a66cef9	0.0008804645
67	0x3cd68071	0.026184293
68	0x3c21bfc4	0.009872381
69	0x3b2617b1	0.002534371
70	0xbbb19dae	-0.005420408
71	0xbb5e8a29	-0.0033956862
72	0xbcd542de	-0.026032861
73	0xbc6eace1	-0.014567585
74	0x3d003a0a	0.03130535
75	0xbc427ec2	-0.011871042
76	0x3cdc3d86	0.026884805
77	0xbcc64e39	-0.024207221
78	0xbbb0a2f7	-0.0053905207
79	0x3c9b5a35	0.018963913
80	0x3c357b7d	0.011076805
81	0x3c9b2192	0.018936906
82	0xbc3775a8	-0.011197485
83	0xbce6da17	-0.028180165
84	0x3cfef8c7	0.031124486
85	0x3cc6110e	0.024178054
86	0xbd0670c2	-0.032822378
87	0xbafd5eaf	-0.0019330586
88	0x3c081f64	0.008308265
89	0x3ca21caa	0.019789059
90	0x3cd35646	0.025797974
91	0xbba9589f	-0.005168035
92	0xbbb6e009	-0.0055809063
93	0x3c9d71d0	0.01921931
94	0xbcaf8cc3	-0.021429425
95	0x3b1a88c6	0.0023580058
96	0xbb9eb303	-0.004843117
97	0x3c3bb1e2	0.011455985
98	0xbc9e1ae9	-0.019299941
99	0x3cf5c6f8	0.030002102
100	0x3c3a5af6	0.011374226
101	0xbc7147cb	-0.014726589
102	0xbcd5dcd3	-0.026106274
103	0x3cf22296	0.029557507
104	0xbce41195	-0.027840415
105	0x3c001bb8	0.007819109
106	0xbd03e822	-0.0322038
107	0xbbfaf28b	-0.007658308
108	0xbcbbfaf1	-0.022946807
109	0x3c2ffe22	0.010741742
110	0xbc5992a5	-0.013279592
111	0x3ce296d9	0.02765982
112	0x3d0dcc02	0.034618385
113	0x3be5ac4a	0.007009064
114	0xbc386972	-0.011255609
115	0xbc84636a	-0.016160686
116	0x3c26a4cc	0.010171127
117	0xbcbc3450	-0.022974163
118	0xbce91a7a	-0.028455008
119	0x3d03d1f2	0.03218264
120	0xbce2a55e	-0.027666744
121	0xbce29d7e	-0.027662989
122	0xbc0e2467	-0.008675671
123	0x3c7f0bb3	0.015566754
124	0x3ca3dd77	0.020003064
125	0x39df27fe	0.0004256367
126	0x3c84724b	0.01616778
127	0x3c262da6	0.010142719
128	0x3c6617b9	0.014043742
129	0xbaee78e0	-0.0018193983
130	0xbd0df305	-0.03465559
131	0xbd0f0815	-0.034919817
132	0x3c9f1f63	0.019424146
133	0x3ca9a3d2	0.020707998
134	0xbb9d72f6	-0.004804964
135	0xbc855f75	-0.016280869
136	0xbca2f52f	-0.019892303
137	0x3cc02609	0.023455637
138	0x3ccd2958	0.025044128
139	0x3c703208	0.014660366
140	0x3c88e7f2	0.016712163
141	0xbc477784	-0.012174491
142	0xbccd33b3	-0.025049066
143	0xbb884a1b	-0.0041592247
144	0x3c40d969	0.011770585
145	0xbcb69e04	-0.022292145
146	0xbce1e0aa	-0.027572948
147	0x3c83e892	0.01610211
148	0xbcadcd98	-0.021216199
149	0xbaa5926c	-0.0012632138
150	0x3c1fd07b	0.009754295
151	0xbc185177	-0.0092967665
152	0xbcd76985	-0.026295433
153	0xbc6b7e53	-0.01437338
154	0xbc604e47	-0.013690538
155	0x3cbf9a88	0.023389116
156	0x3b554b3e	0.0032546069
157	0x3c4bcbf6	0.012438765
158	0xbcc8bfa8	-0.024505451
159	0x3a9e15a6	0.0012060895
160	0x3ce3f3f2	0.027826283
161	0xbc1ed1fa	-0.009693617
162	0xbc92d035	-0.017921546
163	0xbcadff70	-0.021239966
164	0xbcbe673c	-0.023242585
165	0x3c95a567	0.018267347
166	0x3bbd1864	0.00577073
167	0x3c9a13ad	0.01880821
168	0x3cc412da	0.02393477
169	0x3ca17c41	0.01971257
170	0xbc1730fb	-0.009227986
171	0xbcf09a97	-0.02937059
172	0x3cb9cab9	0.022679674
173	0xbc62fe6f	-0.013854607
174	0x3cde644f	0.02714744
175	0x3c8eb6df	0.017421184
176	0x3c103ac6	0.008803075
177	0x3cadabd1	0.021200093
178	0xbccd2cfb	-0.025045862
179	0xbc96967a	-0.0183823
180	0x3c3cafc3	0.011516514
181	0x3c90489e	0.017612752
182	0x3ce784f9	0.028261648
183	0xbb502586	-0.0031760647
184	0xba3f590b	-0.000729934
185	0xbcc4757d	-0.023981804
186	0xbc6faf54	-0.014629204
187	0x3c64c542	0.013963046
188	0x3c3e4015	0.011611958
189	0xbd03ff1a	-0.032225706
190	0x3bb7047e	0.0055852523
191	0xbc0c9817	-0.008581183
192	0x3d025cd3	0.031826805
193	0x3a197ff9	0.0005855556
194	0x3bcc089d	0.0062266127
195	0xbca1e8d9	-0.01976435
196	0x3ca511dd	0.02015012
197	0xbcba5c5c	-0.022749119
198	0x3aa4f183	0.0012584183
199	0x3b351e06	0.0027636304
200	0xbd012999	-0.03153381
201	0xbb42a86f	-0.0029702445
202	0xbc7b42e0	-0.015335768
203	0xbd076f9d	-0.033065427
204	0xbc761ee6	-0.015022015
205	0xbce05228	-0.027382925
206	0x3ca25635	0.019816497
207	0xbd02a284	-0.03189327
208	0xbc91c9f5	-0.017796496
209	0xbcb827df	-0.02247995
210	0x3c62f60e	0.013852609
211	0x3be34d54	0.0069367085
212	0xbc860a16	-0.016362231
213	0xbc02e506	-0.007989174
214	0x3d09f57d	0.03368138
215	0x3bcadbb4	0.0061907414
216	0x3b0a9265	0.0021144387
217	0x3cbdce86	0.023169767
218	0x3c9714d1	0.018442543
219	0xbb2b167a	-0.0026105926
220	0xbccb48a6	-0.024814915
221	0x3cdc2487	0.026872886
222	0xbc7cfce1	-0.01544115
223	0xbcb0a49b	-0.021562865
224	0x3c0a53bc	0.008442815
225	0xbc1bdcd1	-0.009513096
226	0x3cc553fd	0.0240879
227	0xbaff220b	-0.0019465102
228	0x3cce970e	0.025218513
229	0xbcced74d	-0.025249148
230	0x3cfd0062	0.030883972
231	0x3ba0e6b5	0.004910315
232	0xbc8bfed0	-0.017089278
233	0xbbeccfb6	-0.0072269095
234	0xbc2f4503	-0.010697606
235	0x3cc6f059	0.024284529
236	0xbcd88ad8	-0.026433393
237	0x3cb870b7	0.022514684
238	0x3c943d29	0.01809557
239	0xbcac992d	-0.021069134
240	0x3ceed551	0.029154452
241	0x3d048d2c	0.032361194
242	0xbbdd8e6d	-0.0067613632
243	0xbc0681a5	-0.008209621
244	0x3cc737f4	0.024318673
245	0xb94918cc	-0.00019178091
246	0xbd013ede	-0.031554095
247	0xbca67285	-0.020318279
248	0x3a21c545	0.0006171058
249	0xbc289a12	-0.0102906395
250	0xbc38201f	-0.011238127
251	0x3c006e99	0.007838869
252	0xbc82657f	-0.015917538
253	0xbbd1d4bf	-0.006403535
254	0x3cf4c020	0.029876769
255	0xbb0d8509	-0.0021594188

fc.0.bias f4 [256]
0	0x3c9959a2	0.018719498
1	0x3ce2f115	0.027702847
2	0xbc817985	-0.015805015
3	0x3b9d821c	0.00480677
4	0xbb31706c	-0.0027075065
5	0xbca304b7	-0.01989971
6	0x3b754787	0.0037426667
7	0x3c2772e7	0.010220266
8	0xba01ce17	-0.0004951669
9	0x3ccc18ad	0.02491411
10	0xbc3ac49b	-0.011399413
11	0xbc5bd08b	-0.01341642
12	0xbcdf26f6	-0.027240258
13	0xbc5895f0	-0.013219342
14	0xbc2c0118	-0.010498308
15	0x3a025f68	0.0004973323
16	0xbcad5521	-0.021158757
17	0xbbddb54f	-0.0067659984
18	0xbcd10946	-0.025517117
19	0xbcb8aaa4	-0.022542305
20	0x3c1c5d66	0.009543752
21	0x3a8bae28	0.0010656761
22	0xbc55afab	-0.013042371
23	0xbc175279	-0.009235972
24	0x3c5e4833	0.013567018
25	0x3c93b747	0.01803173
26	0xbcfdb1d7	-0.03096859
27	0xbcd6c11e	-0.026215132
28	0x3cea10ae	0.028572407
29	0x3c18cadb	0.009325708
30	0xbce4ca68	-0.027928546
31	0xbd0075fc	-0.03136252
32	0xbbe76848	-0.007061992
33	0xbad377bc	-0.0016133706
34	0x3be4ca1d	0.0069821016
35	0x39f328ba	0.00046378915
36	0xbbfe13e3	-0.0077538355
37	0xbb45cf46	-0.003018336
38	0xbd00fe67	-0.031492617
39	0x3ca9c795	0.020725051
40	0xbcef9616	-0.029246371
41	0xbc760315	-0.015015383
42	0x3b439350	0.0029842444
43	0x3d067779	0.03282878
44	0x38bd159f	9.0162495e-05
45	0x3d0cf8a7	0.03441682
46	0xbce227f4	-0.027606942
47	0x3d06240b	0.032749217
48	0xbb9733c6	-0.004614326
49	0x3cd1701f	0.025566159
50	0xbc8100af	-0.015747396
51	0xbce20c60	-0.027593791
52	0x3cdeda20	0.02720362
53	0x3c21ca2c	0.009874862
54	0xbc6fce8e	-0.014636649
55	0xbc6b4f1a	-0.014362121
56	0xbc25bfe6	-0.010116553
57	0x3d0a7b24	0.033808842
58	0x3b93cc69	0.0045104516
59	0x3ca082ae	0.019593563
60	0xbc0555f9	-0.008138173
61	0x3cb70587	0.022341503
62	0xbb9fe262	-0.004879282
63	0x3bb9d3ba	0.0056709917
64	0x3cf7380f	0.030178098
65	0x3ca3fb31	0.020017238
66	0x3cf8e87c	0.030384295
67	0xbcbc02b5	-0.02295051
68	0xbcc3a2f1	-0.023881407
69	0x3cfbe96f	0.030750958
70	0x3cf97e35	0.030455688
71	0x3cc1ac69	0.023641782
72	0x3cffc1b2	0.03122029
73	0xbcf4d372	-0.029885981
74	0xbd01b6fb	-0.031668644
75	0xbc623bae	-0.013808174
76	0xbc873695	-0.016505519
77	0xbd050cc7	-0.03248289
78	0x3c59086c	0.013246637
79	0x3cfa3f2e	0.030547705
80	0xbd0393be	-0.03212332
81	0xbcb91898	-0.022594735
82	0xbd0aca61	-0.03388441
83	0xbb01ace6	-0.0019786893
84	0xbb0df436	-0.0021660454
85	0x3c9eb34d	0.019372607
86	0xbcaeb48a	-0.021326322
87	0xbcbd57fc	-0.023113243
88	0xbc95e1b6	-0.018296104
89	0x3cf160ed	0.029465163
90	0xbc060528	-0.00817994
91	0xbc1595d7	-0.009129963
92	0xbd029c7b	-0.031887513
93	0x3ca8875f	0.020572362
94	0xbce9b352	-0.02852789
95	0x3ad5d878	0.0016315123
96	0xbd02644c	-0.03183393
97	0x3ba95360	0.00516741
98	0xbc629280	-0.013828874
99	0xbc93ab12	-0.018025909
100	0x3cb4024a	0.021973748
101	0xbcc8bdb2	-0.024504516
102	0x3c81ca54	0.015843548
103	0xbcefa3a4	-0.029252835
104	0xbb1a3961	-0.0023532736
105	0xbc27bbec	-0.010237675
106	0x3c58a742	0.013223471
107	0xbc84f159	-0.016228365
108	0x3d0d7101	0.034531597
109	0x3d0772d5	0.033068497
110	0x3c4fac87	0.012675411
111	0xbbef9009	-0.0073108715
112	0x3cb407f2	0.021976445
113	0x3c8bf1e2	0.017083112
114	0x3c9d3177	0.019188626
115	0x3c527308	0.012844808
116	0x3ca36032	0.01994333
117	0xbcb34870	-0.021885127
118	0xbccb6264	-0.02482719
119	0xbcf68bb7	-0.030095918
120	0x3be8ba75	0.0071023055
121	0xbc8ba656	-0.017047089
122	0xbcad09bb	-0.021122804
123	0xbd0bcca1	-0.034130696
124	0xbce1b0fb	-0.027550211
125	0xbc46166c	-0.012090307
126	0x3cc9b4b8	0.024622306
127	0x3c2a58a0	0.010397106
128	0xbc9d6c3b	-0.019216647
129	0xbc5b758b	-0.013394724
130	0xbc1b4204	-0.009476189
131	0x3c4bf0f0	0.012447581
132	0xbcc3091e	-0.023808058
133	0xbcbc80ae	-0.023010578
134	0xbaa16e6f	-0.0012316237
135	0xbc53fd6e	-0.01293884
136	0x3a657149	0.00087525375
137	0xbc6cf321	-0.014462263
138	0x3d0b8b81	0.03406859
139	0xbcd9dcc3	-0.026594525
140	0xbcbd4ce4	-0.023107953
141	0x3bf14c24	0.007363813
142	0x3c1d53a9	0.009602466
143	0xbc9f2e5a	-0.019431282
144	0x3ce67aea	0.028134782
145	0x3b19b70b	0.002345505
146	0xbd0327f2	-0.032020517
147	0xbbaa6151	-0.0051995893
148	0x3ce6fdcf	0.028197197
149	0x3c8c7402	0.01714516
150	0xbc8450b6	-0.016151767
151	0xbd0568bc	-0.032570586
152	0x3c1a285e	0.009409038
153	0x3cc8f441	0.024530532
154	0xbc971abc	-0.018445365
155	0x3b77c826	0.0037808507
156	0xbbb78a27	-0.005601186
157	0x3c9efe5b	0.019408396
158	0xbc885a85	-0.016644726
159	0x3cb7c21c	0.022431426
160	0x3ced1fd5	0.028945843
161	0xbcb9a517	-0.022661729
162	0x3b29671a	0.0025848807
163	0x3ccb491c	0.024815135
164	0x3cf21838	0.029552564
165	0xbc182b65	-0.00928769
166	0xbbc666c5	-0.0060547316
167	0xbccda2de	-0.025102075
168	0xbce86350	-0.028367668
169	0xbc9f9325	-0.019479344
170	0x3cf6c6ff	0.030124186
171	0x3cab918c	0.020943426
172	0x3cd57261	0.026055517
173	0x3c891088	0.016731516
174	0x3be29cf4	0.006915683
175	0x3c125ea0	0.008933693
176	0x3cb58c6d	0.022161687
177	0xb99e1b61	-0.00030156507
178	0x3d00c212	0.03143508
179	0x3cc01755	0.023448626
180	0xbbf19b5c	-0.0073732566
181	0x3c09b4f9	0.008404964
182	0xba6b99cc	-0.0008987456
183	0x3c8009c1	0.015629651
184	0xbc273c2b	-0.010207216
185	0xbc1ba25c	-0.009499159
186	0x3b8751d3	0.0041296273
187	0x3b250039	0.0025177135
188	0x3c9a6ea8	0.018851593
189	0x3d0ab61f	0.03386509
190	0xbc88e52c	-0.01671084
191	0x3ceab0d8	0.028648779
192	0xbbaaed61	-0.005216286
193	0xbb9143d4	-0.0044331346
194	0x3c921098	0.017830178
195	0x3c35746f	0.011075123
196	0xbc7d908a	-0.015476355
197	0xbbe05279	-0.006845769
198	0x3c57d9f8	0.013174526
199	0x3c915ad3	0.017743504
200	0xbc1a9de6	-0.00943706
201	0xbca82282	-0.020524267
202	0xbcc54656	-0.02408139
203	0x3b7865c4	0.0037902454
204	0xba40d8d0	-0.00073565263
205	0xbc48ac6f	-0.012248143
206	0xbced76d9	-0.028987335
207	0xbc53f7ea	-0.012937525
208	0xbcd4a0b1	-0.02595553
209	0xbcf772ec	-0.030206166
210	0xbcf5e602	-0.030016903
211	0x3ce2dbbd	0.02769267
212	0x3c87f4f1	0.01659629
213	0x3bacc502	0.0052725086
214	0xbcb3a67a	-0.021929968
215	0x3b058721	0.0020374733
216	0x3c69c875	0.014268984
217	0x3ac85fde	0.001528736
218	0x3c8955e7	0.016764594
219	0xbc54478b	-0.01295651
220	0xbcd47eb6	-0.025939327
221	0xbaa872f4	-0.0012851642
222	0xbc207deb	-0.009795646
223	0xbc57241c	-0.013131168
224	0x3c27c861	0.010240645
225	0xbcd56c17	-0.026052518
226	0x3aec57af	0.0018031503
227	0xbc1f8d08	-0.009738214
228	0x3ca9748d	0.020685459
229	0xbcd7604a	-0.026291031
230	0xbcbbea05	-0.022938738
231	0x3cbcc75a	0.023044277
232	0xbc0d480a	-0.0086231325
233	0x3c641c93	0.013922828
234	0x3bf6e851	0.0075350185
235	0x3ae87a2b	0.0017736604
236	0xbcba9716	-0.022777122
237	0xbc87868a	-0.016543645
238	0xbc126380	-0.008934855
239	0x3d0608c1	0.032723192
240	0xbca13d53	-0.019682562
241	0x3cfb23a8	0.03065665
242	0x3ba9ed05	0.0051857256
243	0xbb097267	-0.002097273
244	0xbd029d75	-0.031888444
245	0x3bd36be7	0.006452072
246	0x3cc6fcdd	0.024290496
247	0xbb1a3aab	-0.0023533504
248	0x3cdcfe64	0.026976772
249	0xbd080d62	-0.033215888
250	0x3d036961	0.03208292
251	0x3c0eafb8	0.008708887
252	0xbc54f033	-0.012996721
253	0xbc5ab765	-0.013349389
254	0x3a8d3ae7	0.0010775
255	0x3ce81db5	0.028334478

fc.3.weight f4 [128, 256]
0	0xbbcafdb4	-0.0061947946
1	0x3cd461fa	0.025925625
2	0x3c90fc7e	0.017698523
3	0x3d6135fe	0.05498313
4	0xbb5a0ab0	-0.003327053
5	0x3d54a0ae	0.05191105
6	0xba9a8351	-0.0011788403
7	0xbcfe550f	-0.031046418
8	0x3c9371f1	0.017998667
9	0xbd7b79b2	-0.061395355
10	0x3d755c52	0.059902497
11	0x3c8c45af	0.017123071
12	0x3bbba58b	0.0057265214
13	0xbcd487bf	-0.025943635
14	0x3d2a2e25	0.041547913
15	0xbc3482a6	-0.011017477
16	0xbd7ad40a	-0.061237372
17	0x3ca39f29	0.019973354
18	0xbd445bfe	-0.047939293
19	0x3cfcc4d2	0.03085557
20	0xbb142723	-0.0022606335
21	0xbce78055	-0.028259436
22	0xbd149412	-0.036274023
23	0x3d313027	0.043258812
24	0xbcee2b57	-0.0290734
25	0xbc9244cf	-0.017855076
26	0xbd65fdb6	-0.05615016
27	0x3d32339a	0.043506242
28	0xbc013dde	-0.007888285
29	0xbc2be396	-0.010491272
30	0xbcc12b21	-0.023580136
31	0x3d403766	0.046927832
32	0x3a0bf717	0.00053392485
33	0x3d051bb7	0.032497134
34	0x3cd1a252	0.025590096
35	0xbd3fab22	-0.046794064
36	0xbc9d330b	-0.019189378
37	0x3d6d1c31	0.057888214
38	0xbb75f81a	-0.0037531913
39	0x3ca8f24d	0.02062335
40	0x3a08b0ee	0.0005214353
41	0xb91dc900	-0.00015047565
42	0x3cc4c97f	0.024021862
43	0xbc0f7de9	-0.008758047
44	0x3d37b31a	0.04484854
45	0xbd78119f	-0.06056368
46	0xbd22fb77	-0.039790597
47	0xbc8f6c41	-0.017507674
48	0xbce17f73	-0.027526593
49	0xbd797874	-0.06090589
50	0xbd1236b9	-0.03569672
51	0xbca44f5d	-0.020057375
52	0xbcdc61b2	-0.026902054
53	0xbd669c34	-0.05630131
54	0xbb30517c	-0.0026904037
55	0xbd2cc430	-0.042179286
56	0x3d30b150	0.04313785
57	0x3d525436	0.05134984
58	0xbcabf1c9	-0.020989316
59	0xbcb1aff6	-0.02169035
60	0xbd74159a	-0.059590913
61	0x3d075836	0.03304311
62	0xbd4ce663	-0.0500244
63	0x3d2bd0bd	0.041947115
64	0xbc16eab0	-0.009211227
65	0xbd4d4b68	-0.05012074
66	0xbd040f15	-0.032240946
67	0xbd11bf3d	-0.03558277
68	0xbc86f1b1	-0.01647267
69	0x3d4108c3	0.047127496
70	0xbcab1f49	-0.020888941
71	0xbd7d41a7	-0.06183019
72	0xbd6fc4a0	-0.058537126
73	0x3cb9138f	0.022592334
74	0x3d5f9458	0.05458483
75	0xbb195bef	-0.0023400744
76	0x3c77f0ec	0.015133124
77	0xbd6dac0f	-0.058025416
78	0x3d7dc9b1	0.061959926
79	0xbd2138b0	-0.039360702
80	0x3d6fd9e9	0.058557425
81	0xbd326960	-0.043557525
82	0xbcc28bfa	-0.023748387
83	0xbd1140fb	-0.03546236
84	0x3bc6d533	0.006067896
85	0x3d179b5c	0.037013397
86	0xbd7bf404	-0.06151201
87	0xbd170bd5	-0.03687652
88	0xbcc47e0f	-0.02398589
89	0xbd356a30	-0.04429072
90	0x3d0c165d	0.034201015
91	0x3d184f96	0.037185274
92	0xbce57e9f	-0.02801448
93	0xbd5d3280	-0.05400324
94	0xbb2049a8	-0.0024457965
95	0xbd1ecf70	-0.038772047
96	0x3d618079	0.05505416
97	0xbd6ab90a	-0.057305373
98	0xbccb056d	-0.02478286
99	0x3c82c7b9	0.015964376
100	0xbc138b73	-0.009005415
101	0x3d195c5e	0.037441604
102	0x3c1443d7	0.009049377
103	0xbc8316b3	-0.016002035
104	0xbd5d37f3	-0.054008435
105	0x3d68fd48	0.056882173
106	0x3d5d62a0	0.054049134
107	0x388c4899	6.6892426e-05
108	0xbc452d1e	-0.012034683
109	0x3caf1d45	0.021376261
110	0xbd063d3b	-0.032773238
111	0xbb28b671	-0.002574351
112	0x3d31d6ce	0.043417744
113	0x3c821686	0.01587988
114	0xbd6da78b	-0.05802111
115	0xbd6e2fb5	-0.058150966
116	0xbd7a26e7	-0.061072256
117	0x3c94119a	0.0180748
118	0xbd496ce4	-0.04917611
119	0x3c231939	0.009954744
120	0x3d7b2f1c	0.061324224
121	0xba02ac69	-0.00049847976
122	0x3cc4f731	0.024043651
123	0xbd5e220e	-0.054231696
124	0x3d542e12	0.05180175
125	0x3d29487d	0.041328896
126	0xbd30526c	-0.043047354
127	0x3cdae859	0.02672212
128	0x3d65b786	0.056083225
129	0x3d69e72c	0.05710523
130	0xbd1ff175	-0.03904863
131	0xbb32fe61	-0.0027312266
132	0xbca37a14	-0.019955672
133	0xbc1adee4	-0.009452555
134	0xbccf1449	-0.025278227
135	0x3d635b0b	0.055506747
136	0x3ca5369b	0.02016764
137	0xbc5f14d9	-0.01361581
138	0x3ce8c658	0.02841489
139	0x3cb0f7ff	0.021602629
140	0xbd1f9a9f	-0.038965818
141	0x3d2f64fa	0.042820908
142	0xbc8e2efa	-0.017356385
143	0xbccc3ec4	-0.024932273
144	0xbd0f7e16	-0.035032354
145	0x3be68594	0.0070349667
146	0x3d4e6e7a	0.050398327
147	0xbb965413	-0.004587659
148	0xbd27c8e9	-0.040963087
149	0xbd16c957	-0.036813106
150	0x3d0ca7fb	0.034339886
151	0xbd7e17b0	-0.06203431
152	0x3d7edcb8	0.062222213
153	0x3ca1883c	0.019718282
154	0xbd553f0d	-0.052062083
155	0xbd65e6bf	-0.05612826
156	0x3d6ae5c5	0.05734803
157	0x3c8824f9	0.016619192
158	0x3d0ed334	0.034869388
159	0x3d0d1908	0.0344477
160	0xbd5e9434	-0.054340556
161	0x3d449271	0.04799122
162	0x3c848620	0.016177237
163	0xbd609a53	-0.054834675
164	0xbd3caf2f	-0.046065506
165	0x3cdcecf0	0.02696845
166	0xbbb4b01f	-0.0055141593
167	0xbc9db15b	-0.019249609
168	0x3c93ec6b	0.018057069
169	0x3d15c265	0.036562342
170	0x3bbe725d	0.005811973
171	0xbd07f065	-0.033188242
172	0xbd2daf19	-0.042403314
173	0x3d6069fa	0.054788567
174	0xbb2a36b9	-0.0025972559
175	0xbcf8f535	-0.030390361
176	0x3be110d2	0.00686846
177	0x3c4ab38f	0.012371912
178	0x3d07dc79	0.033169243
179	0xbd54a722	-0.051917203
180	0x3d441b59	0.047877643
181	0x3d35d88b	0.044395965
182	0xbd5ea011	-0.05435187
183	0xbd7ad34b	-0.06123666
184	0xbd630c6b	-0.055431765
185	0xbc40ea68	-0.011774637
186	0xbd3deb94	-0.046367243
187	0x3d707d21	0.058713082
188	0xbcf0f3dc	-0.029413156
189	0x3d62792a	0.055291332
190	0xbbc368fb	-0.0059634424
191	0xbd68a972	-0.05680222
192	0xbd4b5aa5	-0.049646992
193	0xbd4cdea2	-0.050017007
194	0xbd698317	-0.057009783
195	0xbc424c4d	-0.011859012
196	0xbd6cf6ff	-0.05785274
197	0xbd5837cb	-0.052787583
198	0x3cb5e457	0.022203607
199	0xbd7d4d33	-0.0618412
200	0x3c944dc0	0.01810348
201	0x3c7b8e6e	0.015353782
202	0xbd2e6c9c	-0.042584047
203	0xbc8c3dd6	-0.01711933
204	0xbd6247e3	-0.055244338
205	0xbc90dc17	-0.017683072
206	0x3c9f777d	0.019466156
207	0x3d522167	0.051301386
208	0x3d30cda5	0.043164868
209	0xbd5edcfd	-0.05440997
210	0x3b05ae49	0.0020398072
211	0xbc3713c5	-0.011174147
212	0x3d74cc8d	0.059765387
213	0x3ce3c209	0.027802484
214	0x3cb00cd9	0.021490501
215	0x3c6811cb	0.014164398
216	0x3d504dc1	0.050855402
217	0x3d455d20	0.048184514
218	0x3d632c12	0.05546195
219	0x3cba2e03	0.022727018
220	0xba55d6dc	-0.0008157322
221	0x3cfcd3a2	0.030862633
222	0xbd13133e	-0.035907023
223	0x3c81a99a	0.015827943
224	0x3d7af39d	0.061267484
225	0x3d1cf4fe	0.03831958
226	0xbbd5004e	-0.0065002805
227	0xbd49ba22	-0.049249776
228	0xbbb5f88b	-0.0055533103
229	0xbd67c05c	-0.056579933
230	0xbd36d3c0	-0.044635534
231	0x3c472127	0.0121539
232	0xbcb7403e	-0.0223695
233	0xbd2d9291	-0.042376105
234	0xbc5684c5	-0.013093178
235	0xbd672d8e	-0.05643993
236	0x3d440588	0.047856838
237	0xba571106	-0.0008204136
238	0xbd300eb4	-0.042982772
239	0xbcd0264f	-0.025408892
240	0xba1d6d7c	-0.0006005389
241	0xbcda7069	-0.02666493
242	0x3d38d522	0.045125134
243	0xbcc717fe	-0.024303433
244	0xbcdc151e	-0.026865538
245	0x3d4b3c93	0.049618315
246	0x3cb45cbe	0.02201688
247	0x3d043450	0.03227645
248	0xbce657c3	-0.02811802
249	0x3d6458a8	0.05574861
250	0xbc45058d	-0.012025249
251	0x3d4b7a3a	0.04967711
252	0x3d7477aa	0.059684433
253	0x3d410ffc	0.047134385
254	0xbd19b41c	-0.03752528
255	0x3cf40b54	0.029790558

fc.3.bias f4 [128]
0	0xbc8fd4de	-0.017557558
1	0xbbacd364	-0.005274223
2	0x3d37b614	0.044851378
3	0xbbaa2250	-0.0051920786
4	0x3d731250	0.059343636
5	0xbd499582	-0.049214847
6	0x3ade573b	0.0016963253
7	0x3cdcc99b	0.026951602
8	0x3cd8af64	0.02645082
9	0x3c093fe5	0.00837705
10	0x3d0f116b	0.03492872
11	0x3b48c88c	0.0030637113
12	0xbcbecc93	-0.023290908
13	0x3cca94ea	0.02472921
14	0x3cbad992	0.022808824
15	0x3d5ac724	0.05341257
16	0xbc8fcda4	-0.017554112
17	0xbd4be705	-0.049780864
18	0x3d03c24e	0.032167725
19	0xbac3c0ac	-0.001493474
20	0x3bf989b7	0.007615294
21	0x3c9ae6e3	0.018908923
22	0x3c54eb1f	0.01299551
23	0x3abe6ffb	0.0014529222
24	0x3c24441a	0.010026002
25	0x3d07e9ef	0.03318208
26	0xba62001a	-0.0008621231
27	0x3d10d361	0.035357837
28	0xbcaaa033	-0.020828342
29	0x3c4c33e8	0.012463547
30	0xbcdadbd7	-0.026716156
31	0x3d75217f	0.059846397
32	0x3cf2116d	0.029549325
33	0x3c92574c	0.017863892
34	0x3d7d2057	0.06179842
35	0x3c1054fa	0.0088093225
36	0xbd78cc5a	-0.06074176
37	0x3cfa2356	0.030534428
38	0xbd318be8	-0.043346316
39	0x3d6fb6bb	0.058523875
40	0xbd6ed5a5	-0.058309216
41	0x3d6d9110	0.05799967
42	0xbc172386	-0.009224778
43	0xbd0b1861	-0.033958796
44	0xbd2059f6	-0.039148293
45	0x3d720954	0.059090927
46	0x3d0a22a4	0.033724442
47	0xbd31013a	-0.04321406
48	0x3d641e9a	0.055693246
49	0x3cfb50d6	0.030678194
50	0xbcb92de6	-0.022604894
51	0xbc36123b	-0.011112745
52	0x3d24cc29	0.040233765
53	0xbaa62802	-0.0012676718
54	0x3d2b6897	0.04184779
55	0xbd1f0168	-0.0388197
56	0xbcf01198	-0.029305264
57	0x3bdbbe60	0.006706044
58	0x3d6f7480	0.058460712
59	0xbd2edf5d	-0.042693485
60	0xbcfe9fc2	-0.031082038
61	0x3b0185a0	0.0019763485
62	0xbc246b88	-0.010035403
63	0x3d6947dc	0.056953296
64	0x3cbe67f5	0.02324293
65	0x3b6056cf	0.003423143
66	0x3d200d2d	0.039075065
67	0x3a413457	0.0007370165
68	0x3d6e1cf3	0.058133077
69	0xbccc84da	-0.024965692
70	0x3cb66575	0.022265175
71	0x3c962a68	0.018330768
72	0x3b2ad1ea	0.002606506
73	0xbd167eef	-0.036742147
74	0x3d079ed8	0.03311047
75	0xbd07ff14	-0.033202246
76	0x3c4d135a	0.012516821
77	0xbcfe2bb1	-0.031026693
78	0x3c4450f3	0.01198219
79	0x3d490ae9	0.04908267
80	0xbb09cd0d	-0.002102676
81	0xbd37eb48	-0.044902116
82	0xbd695cc5	-0.056973238
83	0xbc6121da	-0.013740981
84	0x3d692bee	0.05692666
85	0xbd22aec2	-0.039717443
86	0xbc2c5364	-0.010517929
87	0xbcbe1250	-0.023202091
88	0xbd15988a	-0.036522426
89	0x3c3af65a	0.011411274
90	0xbd213683	-0.039358627
91	0x3d66cbd1	0.05634672
92	0x3cf7b99e	0.030239876
93	0xbd291590	-0.04128033
94	0xbc5823d7	-0.013192139
95	0x3d5232a9	0.051317845
96	0xbc952574	-0.018206336
97	0x3cf3a617	0.029742284
98	0xbd159b56	-0.036525093
99	0x3d233b88	0.039851695
100	0x3c86a972	0.01643822
101	0x3d344454	0.044010475
102	0xbcea9766	-0.028636646
103	0x3c5ede5c	0.013602819
104	0xbd49aad5	-0.049235184
105	0x3bdeab4e	0.0067953235
106	0x3c72477c	0.014787551
107	0xbcbd2c9e	-0.023092564
108	0x3ca9b126	0.020714354
109	0x3d567184	0.05235435
110	0x3d018873	0.03162427
111	0x3cabb43a	0.020959962
112	0xbd0657f1	-0.03279871
113	0xbd7f5664	-0.062338248
114	0x3c58c8f1	0.013231502
115	0xbd0af6fb	-0.033926945
116	0xbcbab0ab	-0.02278932
117	0xbd2d9346	-0.04237678
118	0xbd5ef19d	-0.05442964
119	0xbd589d24	-0.052884236
120	0xbd2ba6d2	-0.04190714
121	0xbd1f9166	-0.038957022
122	0x3d449b30	0.04799956
123	0x3cf05390	0.02933672
124	0xbac19d90	-0.0014771689
125	0x3d2230c7	0.0395973
126	0xbd0b96bc	-0.0340793
127	0xbcef9853	-0.029247439

fc.6.weight f4 [1, 128]
0	0x3c2d346a	0.0105715785
1	0x3d63fe0e	0.055662207
2	0xbd40ed92	-0.047101565
3	0x3d67956d	0.056538988
4	0xba3a2d0a	-0.0007102048
5	0xbc937e54	-0.018004574
6	0x3b8a5492	0.0042215073
7	0x3cb05dd7	0.021529121
8	0xbd676b49	-0.0564988
9	0xbc68f718	-0.014219068
10	0xbda49322	-0.08035876
11	0xbd9bedb5	-0.076136984
12	0x3cb7696f	0.022389142
13	0xbc664990	-0.014055625
14	0x3d383cbc	0.044979796
15	0xbca96168	-0.02067633
16	0x396eaf87	0.00022762838
17	0x3d99f2fb	0.07517048
18	0xbd8ce1fa	-0.06879039
19	0x3d0a04a5	0.033695836
20	0x3d75db43	0.060023557
21	0x3d8fc8a5	0.07020692
22	0xbcd6f291	-0.026238712
23	0xbd9cfeaf	-0.076657645
24	0xbcbb33cf	-0.022851853
25	0x3ca9adbe	0.02071273
26	0x3ce3efb1	0.027824255
27	0x3d354e2c	0.044264004
28	0xbdab9266	-0.08377533
29	0xbd985fd3	-0.07440152
30	0x3d8bf396	0.0683357
31	0x3cab7ab5	0.020932535
32	0xbbdac6c5	-0.006676527
33	0x3da20265	0.07910613
34	0x3cba41b0	0.0227364
35	0xbcfb1792	-0.030650888
36	0xbcb8fc4c	-0.022581242
37	0xbd89f350	-0.06735861
38	0x3d0e0796	0.034675203
39	0x3d87805d	0.0661628
40	0x3aa4911e	0.0012555455
41	0xbd9458ac	-0.07243475
42	0x3d75242f	0.05984896
43	0x3dae1a5d	0.08501122
44	0x3d879cb0	0.06621683
45	0xbbb5a06b	-0.005542805
46	0x3d59e33f	0.053195234
47	0xbd8b2fe0	-0.06796241
48	0xbc574d29	-0.013140955
49	0x3d11ec21	0.03562558
50	0x3d2a18af	0.041527446
51	0x3cab7c47	0.020933283
52	0xbd37a4a1	-0.044834737
53	0xbd8358a7	-0.064133935
54	0x3d1314fb	0.03590868
55	0x3c7d9e85	0.0154796885
56	0xbd408a59	-0.04700694
57	0xbd9196a5	-0.07108811
58	0x3d0c1ef2	0.0342092
59	0x3d80754c	0.062723726
60	0x3d092756	0.03348478
61	0x3d83e8aa	0.064408615
62	0x3aefddec	0.0018300391
63	0xbd8c3ea0	-0.06847882
64	0x3bab4a5f	0.0052273716
65	0xbc1992c6	-0.009373372
66	0xbd247a4e	-0.0401557
67	0x3d7f51d5	0.0623339
68	0x3da06090	0.07830918
69	0x3da91939	0.08256764
70	0xbc00f86f	-0.007871731
71	0x3c8c5bea	0.017133672
72	0x3d8407e1	0.06446815
73	0x3c9b7c6a	0.018980224
74	0xbdab92bd	-0.083775975
75	0xbd805d67	-0.06267815
76	0xbd36514a	-0.044511117
77	0xbdab78d1	-0.08372653
78	0x3c8b333e	0.016992208
79	0xbd89e558	-0.06733197
80	0x3d788b60	0.060679793
81	0xbbf00b32	-0.0073255533
82	0xbbfc8105	-0.00770581
83	0xbccf4d8d	-0.025305534
84	0xbd67a04e	-0.056549363
85	0xbd95af3a	-0.073088124
86	0x3d83dcaf	0.064385764
87	0xbd05a3f9	-0.03262708
88	0xbd97c421	-0.074104555
89	0xbca5caca	-0.020238299
90	0x3bf88e87	0.00758535
91	0x3c7908ea	0.015199879
92	0x3d6a57f9	0.057212804
93	0x3d3b90cd	0.04579239
94	0xbda11c82	-0.078667656
95	0xbc715db0	-0.0147318095
96	0xbd87e658	-0.066357315
97	0x3d17c06b	0.03704874
98	0xbd8c701f	-0.06857323
99	0x3d864f28	0.065580666
100	0x3a901954	0.0010993876
101	0x3caaa7cf	0.02083197
102	0xbcd2dd34	-0.025740243
103	0x3cc1164e	0.023570206
104	0xbd10c097	-0.035339918
105	0xbd15fd9d	-0.036618818
106	0xbbf2820c	-0.0074007567
107	0xbc13574c	-0.008992981
108	0xbd965f8c	-0.07342443
109	0x3d8d522e	0.0690044
110	0x3bf03900	0.0073310137
111	0x3d92867d	0.07154558
112	0x3c09e6bc	0.008416828
113	0xbcc4e9a6	-0.024037194
114	0xbbcea663	-0.006306456
115	0x3d982541	0.074289806
116	0x3cc7d338	0.02439271
117	0x3c841a78	0.016125903
118	0xbd7e4bfe	-0.06208419
119	0xbda54d4f	-0.08071386
120	0x3cf94159	0.030426668
121	0xbdb2c197	-0.087283306
122	0x3d8efc95	0.0698177
123	0xbc324887	-0.01088155
124	0xbd6d959a	-0.058004
125	0xbd81c623	-0.0633662
126	0xbcd8c630	-0.02646169
127	0x3d8fa0e7	0.070131116
